…
I20260425 16:36:43.534087  7824 net.cpp:296] The NetState phase (0) differed from the phase (1) specified by a rule in layer accuracy
I20260425 16:36:43.534106  7824 net.cpp:53] Initializing net from parameters: 
name: "CIFAR10_quick"
state {
  phase: TRAIN
  level: 0
  stage: ""
}
layer {
  name: "cifar"
  type: "Data"
  top: "data"
  top: "label"
  include {
    phase: TRAIN
  }
  transform_param {
    mean_file: "examples/cifar10/mean.binaryproto"
  }
  data_param {
    source: "examples/cifar10/cifar10_train_lmdb"
    batch_size: 100
    backend: LMDB
  }
}
layer {
  name: "conv1"
  type: "Convolution"
  bottom: "data"
  top: "conv1"
  param {
    lr_mult: 1
  }
  param {
    lr_mult: 2
  }
  convolution_param {
    num_output: 32
    pad: 2
    kernel_size: 5
    stride: 1
    weight_filler {
      type: "gaussian"
      std: 0.0001
    }
    bias_filler {
      type: "constant"
    }
  }
}
layer {
  name: "pool1"
  type: "Pooling"
  bottom: "conv1"
  top: "pool1"
  pooling_param {
    pool: MAX
    kernel_size: 3
    stride: 2
  }
}
layer {
  name: "relu1"
  type: "ReLU"
  bottom: "pool1"
  top: "pool1"
}
layer {
  name: "conv2"
  type: "Convolution"
  bottom: "pool1"
  top: "conv2"
  param {
    lr_mult: 1
  }
  param {
    lr_mult: 2
  }
  convolution_param {
    num_output: 32
    pad: 2
    kernel_size: 5
    stride: 1
    weight_filler {
      type: "gaussian"
      std: 0.01
    }
    bias_filler {
      type: "constant"
    }
  }
}
layer {
  name: "relu2"
  type: "ReLU"
  bottom: "conv2"
  top: "conv2"
}
layer {
  name: "pool2"
  type: "Pooling"
  bottom: "conv2"
  top: "pool2"
  pooling_param {
    pool: AVE
    kernel_size: 3
    stride: 2
  }
}
layer {
  name: "conv3"
  type: "Convolution"
  bottom: "pool2"
  top: "conv3"
  param {
    lr_mult: 1
  }
  param {
    lr_mult: 2
  }
  convolution_param {
    num_output: 64
    pad: 2
    kernel_size: 5
    stride: 1
    weight_filler {
      type: "gaussian"
      std: 0.01
    }
    bias_filler {
      type: "constant"
    }
  }
}
layer {
  name: "relu3"
  type: "ReLU"
  bottom: "conv3"
  top: "conv3"
}
layer {
  name: "pool3"
  type: "Pooling"
  bottom: "conv3"
  top: "pool3"
  pooling_param {
    pool: AVE
    kernel_size: 3
    stride: 2
  }
}
layer {
  name: "ip1"
  type: "InnerProduct"
  bottom: "pool3"
  top: "ip1"
  param {
    lr_mult: 1
  }
  param {
    lr_mult: 2
  }
  inner_product_param {
    num_output: 64
    weight_filler {
      type: "gaussian"
      std: 0.1
    }
    bias_filler {
      type: "constant"
    }
  }
}
layer {
  name: "ip2"
  type: "InnerProduct"
  bottom: "ip1"
  top: "ip2"
  param {
    lr_mult: 1
  }
  param {
    lr_mult: 2
  }
  inner_product_param {
    num_output: 10
    weight_filler {
      type: "gaussian"
      std: 0.1
    }
    bias_filler {
      type: "constant"
    }
  }
}
layer {
  name: "loss"
  type: "SoftmaxWithLoss"
  bottom: "ip2"
  bottom: "label"
  top: "loss"
}
I20260425 16:36:43.534221  7824 layer_factory.hpp:77] Creating layer cifar
I20260425 16:36:43.534353  7824 db_lmdb.cpp:35] Opened lmdb examples/cifar10/cifar10_train_lmdb
I20260425 16:36:43.534425  7824 net.cpp:86] Creating Layer cifar
I20260425 16:36:43.534444  7824 net.cpp:382] cifar -> data
I20260425 16:36:43.534497  7824 net.cpp:382] cifar -> label
I20260425 16:36:43.534538  7824 data_transformer.cpp:25] Loading mean file from: examples/cifar10/mean.binaryproto
I20260425 16:36:43.534657  7824 data_layer.cpp:45] output data size: 100,3,32,32
I20260425 16:36:43.534998  7824 net.cpp:124] Setting up cifar
I20260425 16:36:43.535034  7824 net.cpp:131] Top shape: 100 3 32 32 (307200)
I20260425 16:36:43.535053  7824 net.cpp:131] Top shape: 100 (100)
I20260425 16:36:43.535061  7824 net.cpp:139] Memory required for data: 1229200
I20260425 16:36:43.535072  7824 layer_factory.hpp:77] Creating layer conv1
I20260425 16:36:43.535089  7824 net.cpp:86] Creating Layer conv1
I20260425 16:36:43.535118  7824 net.cpp:408] conv1 <- data
I20260425 16:36:43.535140  7824 net.cpp:382] conv1 -> conv1
I20260425 16:36:43.535208  7824 net.cpp:124] Setting up conv1
I20260425 16:36:43.535260  7824 net.cpp:131] Top shape: 100 32 32 32 (3276800)
I20260425 16:36:43.535277  7824 net.cpp:139] Memory required for data: 14336400
I20260425 16:36:43.535291  7824 layer_factory.hpp:77] Creating layer pool1
I20260425 16:36:43.535305  7824 net.cpp:86] Creating Layer pool1
I20260425 16:36:43.535354  7824 net.cpp:408] pool1 <- conv1
I20260425 16:36:43.535409  7824 net.cpp:382] pool1 -> pool1
I20260425 16:36:43.535442  7824 net.cpp:124] Setting up pool1
I20260425 16:36:43.535473  7824 net.cpp:131] Top shape: 100 32 16 16 (819200)
I20260425 16:36:43.535490  7824 net.cpp:139] Memory required for data: 17613200
I20260425 16:36:43.535498  7824 layer_factory.hpp:77] Creating layer relu1
I20260425 16:36:43.535534  7824 net.cpp:86] Creating Layer relu1
I20260425 16:36:43.535595  7824 net.cpp:408] relu1 <- pool1
I20260425 16:36:43.535612  7824 net.cpp:369] relu1 -> pool1 (in-place)
I20260425 16:36:43.535635  7824 net.cpp:124] Setting up relu1
I20260425 16:36:43.535643  7824 net.cpp:131] Top shape: 100 32 16 16 (819200)
I20260425 16:36:43.535696  7824 net.cpp:139] Memory required for data: 20890000
I20260425 16:36:43.535749  7824 layer_factory.hpp:77] Creating layer conv2
I20260425 16:36:43.535807  7824 net.cpp:86] Creating Layer conv2
I20260425 16:36:43.535843  7824 net.cpp:408] conv2 <- pool1
I20260425 16:36:43.535879  7824 net.cpp:382] conv2 -> conv2
I20260425 16:36:43.536147  7824 net.cpp:124] Setting up conv2
I20260425 16:36:43.536203  7824 net.cpp:131] Top shape: 100 32 16 16 (819200)
I20260425 16:36:43.536240  7824 net.cpp:139] Memory required for data: 24166800
I20260425 16:36:43.536296  7824 layer_factory.hpp:77] Creating layer relu2
I20260425 16:36:43.536315  7824 net.cpp:86] Creating Layer relu2
I20260425 16:36:43.536325  7824 net.cpp:408] relu2 <- conv2
I20260425 16:36:43.536357  7824 net.cpp:369] relu2 -> conv2 (in-place)
I20260425 16:36:43.536396  7824 net.cpp:124] Setting up relu2
I20260425 16:36:43.536450  7824 net.cpp:131] Top shape: 100 32 16 16 (819200)
I20260425 16:36:43.536487  7824 net.cpp:139] Memory required for data: 27443600
I20260425 16:36:43.536542  7824 layer_factory.hpp:77] Creating layer pool2
I20260425 16:36:43.536580  7824 net.cpp:86] Creating Layer pool2
I20260425 16:36:43.536633  7824 net.cpp:408] pool2 <- conv2
I20260425 16:36:43.536671  7824 net.cpp:382] pool2 -> pool2
I20260425 16:36:43.536728  7824 net.cpp:124] Setting up pool2
I20260425 16:36:43.536764  7824 net.cpp:131] Top shape: 100 32 8 8 (204800)
I20260425 16:36:43.536801  7824 net.cpp:139] Memory required for data: 28262800
I20260425 16:36:43.536864  7824 layer_factory.hpp:77] Creating layer conv3
I20260425 16:36:43.536896  7824 net.cpp:86] Creating Layer conv3
I20260425 16:36:43.536913  7824 net.cpp:408] conv3 <- pool2
I20260425 16:36:43.536924  7824 net.cpp:382] conv3 -> conv3
I20260425 16:36:43.537405  7824 net.cpp:124] Setting up conv3
I20260425 16:36:43.537436  7824 net.cpp:131] Top shape: 100 64 8 8 (409600)
I20260425 16:36:43.537454  7824 net.cpp:139] Memory required for data: 29901200
I20260425 16:36:43.537473  7824 layer_factory.hpp:77] Creating layer relu3
I20260425 16:36:43.537494  7824 net.cpp:86] Creating Layer relu3
I20260425 16:36:43.537534  7824 net.cpp:408] relu3 <- conv3
I20260425 16:36:43.537550  7824 net.cpp:369] relu3 -> conv3 (in-place)
I20260425 16:36:43.537624  7824 net.cpp:124] Setting up relu3
I20260425 16:36:43.537639  7824 net.cpp:131] Top shape: 100 64 8 8 (409600)
I20260425 16:36:43.537701  7824 net.cpp:139] Memory required for data: 31539600
I20260425 16:36:43.537741  7824 layer_factory.hpp:77] Creating layer pool3
I20260425 16:36:43.537778  7824 net.cpp:86] Creating Layer pool3
I20260425 16:36:43.537834  7824 net.cpp:408] pool3 <- conv3
I20260425 16:36:43.537881  7824 net.cpp:382] pool3 -> pool3
I20260425 16:36:43.537962  7824 net.cpp:124] Setting up pool3
I20260425 16:36:43.538012  7824 net.cpp:131] Top shape: 100 64 4 4 (102400)
I20260425 16:36:43.538085  7824 net.cpp:139] Memory required for data: 31949200
I20260425 16:36:43.538128  7824 layer_factory.hpp:77] Creating layer ip1
I20260425 16:36:43.538195  7824 net.cpp:86] Creating Layer ip1
I20260425 16:36:43.538268  7824 net.cpp:408] ip1 <- pool3
I20260425 16:36:43.538321  7824 net.cpp:382] ip1 -> ip1
I20260425 16:36:43.538995  7824 net.cpp:124] Setting up ip1
I20260425 16:36:43.539054  7824 net.cpp:131] Top shape: 100 64 (6400)
I20260425 16:36:43.539091  7824 net.cpp:139] Memory required for data: 31974800
I20260425 16:36:43.539130  7824 layer_factory.hpp:77] Creating layer ip2
I20260425 16:36:43.539191  7824 net.cpp:86] Creating Layer ip2
I20260425 16:36:43.539211  7824 net.cpp:408] ip2 <- ip1
I20260425 16:36:43.539261  7824 net.cpp:382] ip2 -> ip2
I20260425 16:36:43.539331  7824 net.cpp:124] Setting up ip2
I20260425 16:36:43.539346  7824 net.cpp:131] Top shape: 100 10 (1000)
I20260425 16:36:43.539355  7824 net.cpp:139] Memory required for data: 31978800
I20260425 16:36:43.539366  7824 layer_factory.hpp:77] Creating layer loss
I20260425 16:36:43.539420  7824 net.cpp:86] Creating Layer loss
I20260425 16:36:43.539435  7824 net.cpp:408] loss <- ip2
I20260425 16:36:43.539469  7824 net.cpp:408] loss <- label
I20260425 16:36:43.539506  7824 net.cpp:382] loss -> loss
…
I20260425 16:36:43.540428  7824 solver.cpp:190] Creating test net (#0) specified by net file: examples/cifar10/cifar10_quick_train_test.prototxt
I20260425 16:36:43.540485  7824 net.cpp:296] The NetState phase (1) differed from the phase (0) specified by a rule in layer cifar
I20260425 16:36:43.540548  7824 net.cpp:53] Initializing net from parameters: 
name: "CIFAR10_quick"
state {
  phase: TEST
}
layer {
  name: "cifar"
  type: "Data"
  top: "data"
  top: "label"
  include {
    phase: TEST
  }
  transform_param {
    mean_file: "examples/cifar10/mean.binaryproto"
  }
  data_param {
    source: "examples/cifar10/cifar10_test_lmdb"
    batch_size: 100
    backend: LMDB
  }
}
layer {
  name: "conv1"
  type: "Convolution"
  bottom: "data"
  top: "conv1"
  param {
    lr_mult: 1
  }
  param {
    lr_mult: 2
  }
  convolution_param {
    num_output: 32
    pad: 2
    kernel_size: 5
    stride: 1
    weight_filler {
      type: "gaussian"
      std: 0.0001
    }
    bias_filler {
      type: "constant"
    }
  }
}
layer {
  name: "pool1"
  type: "Pooling"
  bottom: "conv1"
  top: "pool1"
  pooling_param {
    pool: MAX
    kernel_size: 3
    stride: 2
  }
}
layer {
  name: "relu1"
  type: "ReLU"
  bottom: "pool1"
  top: "pool1"
}
layer {
  name: "conv2"
  type: "Convolution"
  bottom: "pool1"
  top: "conv2"
  param {
    lr_mult: 1
  }
  param {
    lr_mult: 2
  }
  convolution_param {
    num_output: 32
    pad: 2
    kernel_size: 5
    stride: 1
    weight_filler {
      type: "gaussian"
      std: 0.01
    }
    bias_filler {
      type: "constant"
    }
  }
}
layer {
  name: "relu2"
  type: "ReLU"
  bottom: "conv2"
  top: "conv2"
}
layer {
  name: "pool2"
  type: "Pooling"
  bottom: "conv2"
  top: "pool2"
  pooling_param {
    pool: AVE
    kernel_size: 3
    stride: 2
  }
}
layer {
  name: "conv3"
  type: "Convolution"
  bottom: "pool2"
  top: "conv3"
  param {
    lr_mult: 1
  }
  param {
    lr_mult: 2
  }
  convolution_param {
    num_output: 64
    pad: 2
    kernel_size: 5
    stride: 1
    weight_filler {
      type: "gaussian"
      std: 0.01
    }
    bias_filler {
      type: "constant"
    }
  }
}
layer {
  name: "relu3"
  type: "ReLU"
  bottom: "conv3"
  top: "conv3"
}
layer {
  name: "pool3"
  type: "Pooling"
  bottom: "conv3"
  top: "pool3"
  pooling_param {
    pool: AVE
    kernel_size: 3
    stride: 2
  }
}
layer {
  name: "ip1"
  type: "InnerProduct"
  bottom: "pool3"
  top: "ip1"
  param {
    lr_mult: 1
  }
  param {
    lr_mult: 2
  }
  inner_product_param {
    num_output: 64
    weight_filler {
      type: "gaussian"
      std: 0.1
    }
    bias_filler {
      type: "constant"
    }
  }
}
layer {
  name: "ip2"
  type: "InnerProduct"
  bottom: "ip1"
  top: "ip2"
  param {
    lr_mult: 1
  }
  param {
    lr_mult: 2
  }
  inner_product_param {
    num_output: 10
    weight_filler {
      type: "gaussian"
      std: 0.1
    }
    bias_filler {
      type: "constant"
    }
  }
}
layer {
  name: "accuracy"
  type: "Accuracy"
  bottom: "ip2"
  bottom: "label"
  top: "accuracy"
  include {
    phase: TEST
  }
}
layer {
  name: "loss"
  type: "SoftmaxWithLoss"
  bottom: "ip2"
  bottom: "label"
  top: "loss"
}
I20260425 16:36:43.540724  7824 layer_factory.hpp:77] Creating layer cifar
I20260425 16:36:43.540881  7824 db_lmdb.cpp:35] Opened lmdb examples/cifar10/cifar10_test_lmdb
I20260425 16:36:43.540956  7824 net.cpp:86] Creating Layer cifar
I20260425 16:36:43.540982  7824 net.cpp:382] cifar -> data
I20260425 16:36:43.540995  7824 net.cpp:382] cifar -> label
I20260425 16:36:43.541005  7824 data_transformer.cpp:25] Loading mean file from: examples/cifar10/mean.binaryproto
I20260425 16:36:43.541121  7824 data_layer.cpp:45] output data size: 100,3,32,32
I20260425 16:36:43.541378  7824 net.cpp:124] Setting up cifar
I20260425 16:36:43.541414  7824 net.cpp:131] Top shape: 100 3 32 32 (307200)
I20260425 16:36:43.541452  7824 net.cpp:131] Top shape: 100 (100)
I20260425 16:36:43.541487  7824 net.cpp:139] Memory required for data: 1229200
I20260425 16:36:43.541523  7824 layer_factory.hpp:77] Creating layer label_cifar_1_split
I20260425 16:36:43.541610  7824 net.cpp:86] Creating Layer label_cifar_1_split
I20260425 16:36:43.541647  7824 net.cpp:408] label_cifar_1_split <- label
I20260425 16:36:43.541684  7824 net.cpp:382] label_cifar_1_split -> label_cifar_1_split_0
I20260425 16:36:43.541743  7824 net.cpp:382] label_cifar_1_split -> label_cifar_1_split_1
I20260425 16:36:43.541795  7824 net.cpp:124] Setting up label_cifar_1_split
I20260425 16:36:43.541850  7824 net.cpp:131] Top shape: 100 (100)
I20260425 16:36:43.541872  7824 net.cpp:131] Top shape: 100 (100)
I20260425 16:36:43.541980  7824 net.cpp:139] Memory required for data: 1230000
I20260425 16:36:43.542003  7824 layer_factory.hpp:77] Creating layer conv1
I20260425 16:36:43.542021  7824 net.cpp:86] Creating Layer conv1
I20260425 16:36:43.542043  7824 net.cpp:408] conv1 <- data
I20260425 16:36:43.542053  7824 net.cpp:382] conv1 -> conv1
I20260425 16:36:43.542120  7824 net.cpp:124] Setting up conv1
I20260425 16:36:43.542155  7824 net.cpp:131] Top shape: 100 32 32 32 (3276800)
I20260425 16:36:43.542192  7824 net.cpp:139] Memory required for data: 14337200
I20260425 16:36:43.542250  7824 layer_factory.hpp:77] Creating layer pool1
I20260425 16:36:43.542277  7824 net.cpp:86] Creating Layer pool1
I20260425 16:36:43.542286  7824 net.cpp:408] pool1 <- conv1
I20260425 16:36:43.542302  7824 net.cpp:382] pool1 -> pool1
I20260425 16:36:43.542357  7824 net.cpp:124] Setting up pool1
I20260425 16:36:43.542393  7824 net.cpp:131] Top shape: 100 32 16 16 (819200)
I20260425 16:36:43.542447  7824 net.cpp:139] Memory required for data: 17614000
I20260425 16:36:43.542466  7824 layer_factory.hpp:77] Creating layer relu1
I20260425 16:36:43.542498  7824 net.cpp:86] Creating Layer relu1
I20260425 16:36:43.542511  7824 net.cpp:408] relu1 <- pool1
I20260425 16:36:43.542527  7824 net.cpp:369] relu1 -> pool1 (in-place)
I20260425 16:36:43.542579  7824 net.cpp:124] Setting up relu1
I20260425 16:36:43.542598  7824 net.cpp:131] Top shape: 100 32 16 16 (819200)
I20260425 16:36:43.542630  7824 net.cpp:139] Memory required for data: 20890800
I20260425 16:36:43.542685  7824 layer_factory.hpp:77] Creating layer conv2
I20260425 16:36:43.542712  7824 net.cpp:86] Creating Layer conv2
I20260425 16:36:43.542742  7824 net.cpp:408] conv2 <- pool1
I20260425 16:36:43.542797  7824 net.cpp:382] conv2 -> conv2
I20260425 16:36:43.543124  7824 net.cpp:124] Setting up conv2
I20260425 16:36:43.543182  7824 net.cpp:131] Top shape: 100 32 16 16 (819200)
I20260425 16:36:43.543198  7824 net.cpp:139] Memory required for data: 24167600
I20260425 16:36:43.543210  7824 layer_factory.hpp:77] Creating layer relu2
I20260425 16:36:43.543222  7824 net.cpp:86] Creating Layer relu2
I20260425 16:36:43.543252  7824 net.cpp:408] relu2 <- conv2
I20260425 16:36:43.543289  7824 net.cpp:369] relu2 -> conv2 (in-place)
I20260425 16:36:43.543326  7824 net.cpp:124] Setting up relu2
I20260425 16:36:43.543362  7824 net.cpp:131] Top shape: 100 32 16 16 (819200)
I20260425 16:36:43.543416  7824 net.cpp:139] Memory required for data: 27444400
I20260425 16:36:43.543469  7824 layer_factory.hpp:77] Creating layer pool2
I20260425 16:36:43.543493  7824 net.cpp:86] Creating Layer pool2
I20260425 16:36:43.543545  7824 net.cpp:408] pool2 <- conv2
I20260425 16:36:43.543582  7824 net.cpp:382] pool2 -> pool2
I20260425 16:36:43.543640  7824 net.cpp:124] Setting up pool2
I20260425 16:36:43.543660  7824 net.cpp:131] Top shape: 100 32 8 8 (204800)
I20260425 16:36:43.543710  7824 net.cpp:139] Memory required for data: 28263600
I20260425 16:36:43.543746  7824 layer_factory.hpp:77] Creating layer conv3
I20260425 16:36:43.543787  7824 net.cpp:86] Creating Layer conv3
I20260425 16:36:43.543840  7824 net.cpp:408] conv3 <- pool2
I20260425 16:36:43.543859  7824 net.cpp:382] conv3 -> conv3
I20260425 16:36:43.544318  7824 net.cpp:124] Setting up conv3
I20260425 16:36:43.544355  7824 net.cpp:131] Top shape: 100 64 8 8 (409600)
I20260425 16:36:43.544397  7824 net.cpp:139] Memory required for data: 29902000
I20260425 16:36:43.544415  7824 layer_factory.hpp:77] Creating layer relu3
I20260425 16:36:43.544466  7824 net.cpp:86] Creating Layer relu3
I20260425 16:36:43.544486  7824 net.cpp:408] relu3 <- conv3
I20260425 16:36:43.544538  7824 net.cpp:369] relu3 -> conv3 (in-place)
I20260425 16:36:43.544579  7824 net.cpp:124] Setting up relu3
I20260425 16:36:43.544633  7824 net.cpp:131] Top shape: 100 64 8 8 (409600)
I20260425 16:36:43.544651  7824 net.cpp:139] Memory required for data: 31540400
I20260425 16:36:43.544658  7824 layer_factory.hpp:77] Creating layer pool3
I20260425 16:36:43.544675  7824 net.cpp:86] Creating Layer pool3
I20260425 16:36:43.544688  7824 net.cpp:408] pool3 <- conv3
I20260425 16:36:43.544698  7824 net.cpp:382] pool3 -> pool3
I20260425 16:36:43.544713  7824 net.cpp:124] Setting up pool3
I20260425 16:36:43.544726  7824 net.cpp:131] Top shape: 100 64 4 4 (102400)
I20260425 16:36:43.544838  7824 net.cpp:139] Memory required for data: 31950000
I20260425 16:36:43.544878  7824 layer_factory.hpp:77] Creating layer ip1
I20260425 16:36:43.544942  7824 net.cpp:86] Creating Layer ip1
I20260425 16:36:43.544999  7824 net.cpp:408] ip1 <- pool3
I20260425 16:36:43.545020  7824 net.cpp:382] ip1 -> ip1
I20260425 16:36:43.545584  7824 net.cpp:124] Setting up ip1
I20260425 16:36:43.545624  7824 net.cpp:131] Top shape: 100 64 (6400)
I20260425 16:36:43.545665  7824 net.cpp:139] Memory required for data: 31975600
I20260425 16:36:43.545737  7824 layer_factory.hpp:77] Creating layer ip2
I20260425 16:36:43.545754  7824 net.cpp:86] Creating Layer ip2
I20260425 16:36:43.545763  7824 net.cpp:408] ip2 <- ip1
I20260425 16:36:43.545801  7824 net.cpp:382] ip2 -> ip2
I20260425 16:36:43.545853  7824 net.cpp:124] Setting up ip2
I20260425 16:36:43.545912  7824 net.cpp:131] Top shape: 100 10 (1000)
I20260425 16:36:43.545948  7824 net.cpp:139] Memory required for data: 31979600
I20260425 16:36:43.545962  7824 layer_factory.hpp:77] Creating layer ip2_ip2_0_split
I20260425 16:36:43.545976  7824 net.cpp:86] Creating Layer ip2_ip2_0_split
I20260425 16:36:43.545985  7824 net.cpp:408] ip2_ip2_0_split <- ip2
I20260425 16:36:43.546030  7824 net.cpp:382] ip2_ip2_0_split -> ip2_ip2_0_split_0
I20260425 16:36:43.546072  7824 net.cpp:382] ip2_ip2_0_split -> ip2_ip2_0_split_1
I20260425 16:36:43.546132  7824 net.cpp:124] Setting up ip2_ip2_0_split
I20260425 16:36:43.546149  7824 net.cpp:131] Top shape: 100 10 (1000)
I20260425 16:36:43.546157  7824 net.cpp:131] Top shape: 100 10 (1000)
I20260425 16:36:43.546169  7824 net.cpp:139] Memory required for data: 31987600
I20260425 16:36:43.546219  7824 layer_factory.hpp:77] Creating layer accuracy
I20260425 16:36:43.546291  7824 net.cpp:86] Creating Layer accuracy
I20260425 16:36:43.546307  7824 net.cpp:408] accuracy <- ip2_ip2_0_split_0
I20260425 16:36:43.546320  7824 net.cpp:408] accuracy <- label_cifar_1_split_0
I20260425 16:36:43.546371  7824 net.cpp:382] accuracy -> accuracy
…
